…
": 140350725850448, "name": "pos_encoder", "num_parameters": [], "output_shape": [[35, 20, 200]], "class_name": "PositionalEncoding(\n  (dropout): Dropout(p=0.2, inplace=False)\n)", "parameters": []}, {"id": 140350712548208, "name": "transformer_encoder", "num_parameters": [120000, 600, 40000, 200, 40000, 200, 40000, 200, 200, 200, 200, 200, 120000, 600, 40000, 200, 40000, 200, 40000, 200, 200, 200, 200, 200], "output_shape": [[35, 20, 200]], "class_name": "TransformerEncoder(\n  (layers): ModuleList(\n    (0): TransformerEncoderLayer(\n      (self_attn): MultiheadAttention(\n        (out_proj): Linear(in_features=200, out_features=200, bias=True)\n      )\n      (linear1): Linear(in_features=200, out_features=200, bias=True)\n      (dropout): Dropout(p=0.2, inplace=False)\n      (linear2): Linear(in_features=200, out_features=200, bias=True)\n      (norm1): LayerNorm((200,), eps=1e-05, elementwise_affine=True)\n      (norm2): LayerNorm((200,), eps=1e-05, elementwise_affine=True)\n      (dropout1): Dropout(p=0.2, inplace=False)\n      (dropout2): Dropout(p=0.2, inplace=False)\n    )\n    (1): TransformerEncoderLayer(\n      (self_attn): MultiheadAttention(\n        (out_proj): Linear(in_features=200, out_features=200, bias=True)\n      )\n      (linear1): Linear(in_features=200, out_features=200, bias=True)\n      (dropout): Dropout(p=0.2, inplace=False)\n      (linear2): Linear(in_features=200, out_features=200, bias=True)\n      (norm1): LayerNorm((200,), eps=1e-05, elementwise_affine=True)\n      (norm2): LayerNorm((200,), eps=1e-05, elementwise_affine=True)\n      (dropout1): Dropout(p=0.2, inplace=False)\n      (dropout2): Dropout(p=0.2, inplace=False)\n    )\n  )\n)", "parameters": [["layers.0.self_attn.in_proj_weight", [600, 200]], ["layers.0.self_attn.in_proj_bias", [600]], ["layers.0.self_attn.out_proj.weight", [200, 200]], ["layers.0.self_attn.out_proj.bias", [200]], ["layers.0.linear1.weight", [200, 
…
