…
_weight", [600, 200]], ["layers.1.self_attn.in_proj_bias", [600]], ["layers.1.self_attn.out_proj.weight", [200, 200]], ["layers.1.self_attn.out_proj.bias", [200]], ["layers.1.linear1.weight", [200, 200]], ["layers.1.linear1.bias", [200]], ["layers.1.linear2.weight", [200, 200]], ["layers.1.linear2.bias", [200]], ["layers.1.norm1.weight", [200]], ["layers.1.norm1.bias", [200]], ["layers.1.norm2.weight", [200]], ["layers.1.norm2.bias", [200]]], "class_name": "TransformerEncoder(\n  (layers): ModuleList(\n    (0): TransformerEncoderLayer(\n      (self_attn): MultiheadAttention(\n        (out_proj): Linear(in_features=200, out_features=200, bias=True)\n      )\n      (linear1): Linear(in_features=200, out_features=200, bias=True)\n      (dropout): Dropout(p=0.2, inplace=False)\n      (linear2): Linear(in_features=200, out_features=200, bias=True)\n      (norm1): LayerNorm((200,), eps=1e-05, elementwise_affine=True)\n      (norm2): LayerNorm((200,), eps=1e-05, elementwise_affine=True)\n      (dropout1): Dropout(p=0.2, inplace=False)\n      (dropout2): Dropout(p=0.2, inplace=False)\n    )\n    (1): TransformerEncoderLayer(\n      (self_attn): MultiheadAttention(\n        (out_proj): Linear(in_features=200, out_features=200, bias=True)\n      )\n      (linear1): Linear(in_features=200, out_features=200, bias=True)\n      (dropout): Dropout(p=0.2, inplace=False)\n      (linear2): Linear(in_features=200, out_features=200, bias=True)\n      (norm1): LayerNorm((200,), eps=1e-05, elementwise_affine=True)\n      (norm2): LayerNorm((200,), eps=1e-05, elementwise_affine=True)\n      (dropout1): Dropout(p=0.2, inplace=False)\n      (dropout2): Dropout(p=0.2, inplace=False)\n    )\n  )\n)", "num_parameters": [120000, 600, 40000, 200, 40000, 200, 40000, 200, 200, 200, 200, 200, 120000, 600, 40000, 200, 40000, 200, 40000, 200, 200, 200, 200, 200]}, {"output_shape": [[35, 20, 33278]], "id": 139976060278656, "name": "decoder", "par
…
